RL Snake QL/model/model.pth (torch, 16799 bytes, 4 tensors)

linear1.weight f4 [256, 11]
00000000: 8c29 f73d 6ccb 7ebd a799 03be 55f0 80bd
00000010: 9837 2e3e c600 3bbd 2588 ecbd fe9a 99be
00000020: 9eb7 613d bfc3 26be c505 aabe f2e6 09be
00000030: 523e 383e b88a 1b3d 2164 7abe b4fb 8cbe
00000040: 3f63 82be 4f84 9bbe 9194 65bb 07ba 85be
00000050: aeba 94be 0b1b cdba a6e1 0bbe b88b 67be
00000060: 8ec0 5cbe f170 14be 3802 343d 9f44 25be
00000070: e4b2 17be 9dda dfbe 6b28 5fbd f4cd c7be
00000080: b87e bdbe 45a0 0bbd 5e26 1c3f 9fbe 00be
00000090: bd33 59be 085a 0bbe 39c4 113e d6df 10be
000000a0: 5d95 943c 5be9 9bbe a915 43be 4d55 7ebe
000000b0: fbb0 2bbe 479d 22be 41f8 533e eeef c53c
000000c0: d299 81bd a48a e33d baa9 1c3c a396 c5be
000000d0: e3b4 163d 8c0f 043e beca d33d 626a 87bd
000000e0: 1c70 f8bd a849 5a3d 086f 303e 330d 07bc
000000f0: d2d6 693e df3a b13c 43d0 bdbe 3eb5 3dbe
00000100: 9081 f23c c509 6c3d ca52 03bd 8c5c 86bd
00000110: d0bd d1bc 6e0f bfbe f871 0bbe 8d5f 8ebd
00000120: e7fb cebd ef30 38be c1b2 2b3e 0c92 29be
00000130: cdf7 d9bd 3845 bc3e c4b6 223e 0159 2cbe
00000140: 3a14 b6bc abfe 8bbd 2431 dbbd d98f 2d3e
00000150: b16b b9bd a8e7 c23b 8a27 f9bd 2112 03bf
00000160: dc13 c5be 832d 7cbe 7f9f d03d 9c96 04bd
00000170: 41b3 91be c690 c0bc 3367 4ebe 697f a9bc
00000180: 436b 81be 396a 78be d10e 5bbe 36d2 79ba
00000190: f485 8fbe aa53 82bd 8be8 2b3c 9a59 17be
000001a0: 1da2 00be 7d5d 2f3d c4ae 2abe 105a c2bd
000001b0: c451 bbbd e7ef 9cbd 4f78 6cbe 6e4b 613d
000001c0: 2452 ad3d f058 fdbd 7266 58bc 9c3c 453e
000001d0: d5ea a4be 73a5 e6be e612 28be e4c3 51be
000001e0: ec75 433d 2c82 fd3d 093a 673d 0019 d23c
000001f0: 5b2c 163e bff9 1dbe d29d d43c 384e dabd
00000200: 8e59 0fbe 7ee8 c2bd b175 cb3d 72d8 04be
00000210: 766a f1bd 817a 7c3d 04c2 913d c297 983d
00000220: c35e 24be e758 06be f690 2e3d 6bef fabc
00000230: 4aad 7abe d327 8fbe c7a7 1dbe 9453 bc3d
00000240: 7918 80be 3fdc 83be 8b7c b2be 653f 1bbe
00000250: 3e4c 63be de92 06be 419e ef3c 0f67 b9bd
00000260: ef23 b93c 962e 0e3d c5d1 053f d40d 2cbe
00000270: ec31 233c 1837 ea3c eeee c23d a650 67be
00000280: 9089 1a3e 1143 403d 2d8a 1a3e 7206 883e
00000290: 7070 acbe 9ab6 503e 7820 c3be 28ac 6c3e
000002a0: 7682 09bb 7f21 1cbe e75d 053e f5c2 b6bd
000002b0: a620 18be b18c 96be b169 153e c7c7 013c
000002c0: ad01 6dbe f567 93be 507d 563d c122 05be
000002d0: 70da 6dbe cfcc 28be bc40 063d 8349 d4be
000002e0: f08e cabd 74f5 85be fe5a 053a dc56 d7bd
000002f0: 329a 2cbe 4f23 edbe bc26 383e 3a70 f4bc
00000300: 168a 16be 8c4d 3b3e b92a d5bd 61bb 36bd
00000310: 531d a73d 3478 7dbe 9150 80be 7214 403d
00000320: b75d ed3d 41e6 bcbd 34f5 03be 448e 21be
00000330: a856 35be d57d c2bd 12dc b7bc 9850 b0be
00000340: 8f1e 8bbe e98f cf3d 949b 873e 228a 31be
00000350: 7fbc 78bd a470 68be fd25 95be b824 193d
00000360: c820 b6be 6418 2bbe bab2 b83d c0c1 a0be
00000370: 7a22 28be c883 c43d 158b 313e 5024 33be
00000380: 460c a2be d63b a5be 2626 4fbc 8e0e fdbd
00000390: f094 2abd baa8 1dbe dad5 b3bd 49d3 783e
000003a0: d02a 69be ac13 5f3e bccc ea3c f15a 1c3e
000003b0: 4d4e 9abe 1537 2c3e f6b0 df3b 1dd8 cfbe
000003c0: 632e 823e ce46 babe 92d1 3d3e 4a86 d0bd
000003d0: 6f10 2e3c 314e a9be 1e42 60be 1d5a e23d
000003e0: e099 2fbe a385 a23a 4130 8fbd 7d2e 95be
000003f0: 2e3f 88be 3b91 a53e f829 54be 47d7 083e
0.12068471 -0.062205717 -0.12851582 -0.0629584 0.17013395 -0.045655034 -0.11549405 -0.30001062
0.05510675 -0.16285609 -0.33207527 -0.13467005 0.17992523 0.03797409 -0.24452259 -0.27535784
-0.25466344 -0.3037438 -0.003503118 -0.2611849 -0.29048675 -0.0015648318 -0.13660297 -0.22611892
-0.21557829 -0.14496209 0.04394743 -0.16139458 -0.14814335 -0.43721476 -0.054481905 -0.39024317
-0.3701074 -0.03408839 0.60996044 -0.12572716 -0.21211143 -0.13608563 0.14235009 -0.14147887
0.018137628 -0.30451474 -0.19051231 -0.24837227 -0.16766731 -0.15880309 0.2070017 0.024162259
-0.06328167 0.11110428 0.00956195 -0.3859149 0.0367936 0.12896556 0.103414044 -0.06612088
-0.12130758 0.0532929 0.17229855 -0.008242893 0.22835854 0.021634517 -0.37072954 -0.1852617
0.029602796 0.057626504 -0.032061376 -0.06560621 -0.025603205 -0.3731646 -0.13617694 -0.069518186
-0.1010664 -0.17987417 0.16767408 -0.16559619 -0.106429674 0.3677156 0.15890032 -0.16830827
-0.022226442 -0.068356834 -0.10702732 0.16949405 -0.09053744 0.0059480257 -0.121657446 -0.5119954
-0.38491714 -0.24626736 0.101866715 -0.032370195 -0.28457072 -0.023506533 -0.20156555 -0.020690637
-0.25277147 -0.2425927 -0.21392371 -0.000952992 -0.28031886 -0.06363614 0.010492454 -0.14780274
-0.12561841 0.042813767 -0.1666823 -0.09489834 -0.09146455 -0.07662945 -0.23092769 0.055003576
0.08462933 -0.12370479 -0.013208019 0.19261402 -0.32210413 -0.45048103 -0.16413459 -0.20484883
0.04771988 0.12378344 0.05645183 0.025646687 0.14665358 -0.15427302 0.02595416 -0.1065945
-0.13999006 -0.095170006 0.09934557 -0.12973192 -0.11787884 0.061640266 0.07117084 0.074508205
-0.16051774 -0.13119851 0.042618714 -0.030631742 -0.24480167 -0.2796007 -0.15396033 0.09195629
-0.2501867 -0.25753972 -0.34860644 -0.15160902 -0.22197053 -0.13141963 0.029250266 -0.0905286
0.022600142 0.034712397 0.5227321 -0.1680215 0.009960633 0.028590724 0.095182285 -0.22589359
0.15091538 0.04693896 0.15091772 0.26567417 -0.33679533 0.20382157 -0.3811071 0.23112547
-0.0020982302 -0.15247153 0.13024102 -0.08923904 -0.14856204 -0.29404214 0.145911 0.007921166
-0.2314517 -0.2879025 0.0523656 -0.13001539 -0.23227859 -0.16484378 0.03277658 -0.41462335
-0.098905444 -0.26163828 0.0005087106 -0.10514614 -0.16855696 -0.46316 0.17983526 -0.02983867
-0.14701113 0.182913 -0.10408539 -0.044612292 0.0815989 -0.24752885 -0.25061467 0.0468945
0.1159014 -0.09223605 -0.12886506 -0.15776926 -0.17708838 -0.09496657 -0.022443805 -0.34436488
-0.27171752 0.101348706 0.26485884 -0.1733785 -0.06072664 -0.22699219 -0.29130545 0.037388533
-0.35571885 -0.16708523 0.090184644 -0.3139782 -0.16419402 0.09595448 0.17338212 -0.17494321
-0.3164999 -0.32272214 -0.012643373 -0.12356292 -0.041645944 -0.15396395 -0.08781023 0.24299349
-0.22770238 0.21784848 0.028662078 0.15269066 -0.30137864 0.16817887 0.0068265153 -0.4059457
0.25426015 -0.36382145 0.18536976 -0.101818636 0.010624035 -0.33067468 -0.21900222 0.11052344
-0.17148542 0.0012399446 -0.069916256 -0.2913703 -0.26610702 0.32337365 -0.20719135 0.13363372

linear1.bias f4 [256]
00000000: 843b 4abd 9fe6 ccbc 4b3f 29bd 4be4 2fbe
00000010: 3bed 94be fa63 9bbe 9043 3bbe 850a 12be
00000020: cf22 c9bc e305 0dbb f631 80bd beab f6be
00000030: f626 34bd 771d 98bc c293 e3bb 8790 9ebe
00000040: d009 0abd 66ad 8cba 1461 7b3c 9106 1e3d
00000050: 727c 1bbf ce2c 5cbe cc76 28be 01bf 63bc
00000060: e09d e7be 26b3 4abe 04e6 503c 9553 38be
00000070: bb0f 9cbc e09a bebe 1033 b2be 8000 0abe
00000080: 324b 01be 71a5 0a3d d628 c4be 8e7f a7be
00000090: e20b 01bf c293 b5bd a97e f6bd d0f4 99be
000000a0: 955d b1bd 40ac 9bbe 958b 0f39 e5ab 40be
000000b0: 0e86 98be 4da2 3dbe 3736 8ebe 156f 75be
000000c0: 3c6b 4ebe 0e9d 303d 8fed 513d 56ec ee3d
000000d0: bd33 ecbd c01a acbe e644 423e 2407 8d3d
000000e0: 6975 26be 102c 1bbe e37b b6bd 5ce4 97be
000000f0: 1c73 8ebc a617 a6be acdb db3d 1c9e 4cbe
00000100: a24e 653d 99fb 993c 3903 243d 28cc c3be
00000110: d6d3 82bd df72 6ebe fe20 6dbe fa21 26be
00000120: 3890 79be ac27 58bc 931f 7fbe ea62 a5be
00000130: 410f 88be e9b7 b1bd 54c2 28be 8ff1 90be
00000140: d594 c7bd 57e1 a0bd c785 333e 207c ccbe
00000150: 53dc a2bd 8ff5 acbd b9e0 32bd cfdc 08bf
00000160: ddc7 dcbd 6594 a3be 88d2 67bd 1a93 7dbe
00000170: ed6a 78be c0ea b4be 087a 5dbe 14ed 1fbe
00000180: 2ca5 48be 69d7 56be 1f8e 06be 0575 60bc
00000190: 042c 8bbe acac efbd 9910 4f3c 93a0 febc
000001a0: 11a8 f6bd ceb8 15be 684a bebe 2e89 233d
000001b0: d895 d13d 7d42 ebbd c00e a5be 6485 43be
000001c0: 6adc 9ebd c9fc 5cbc 4361 03be 5579 76bd
000001d0: 88c3 38bd 6ddd d0bd 1d6b debe 4e2c c3be
000001e0: 8bf9 d1be f37c 4bbe 0643 92be 5be9 31be
000001f0: b2b5 06be d207 07be b611 343d 6ea5 26bf
00000200: 9a93 09be 2765 c7bd 1d5c 02bd 906a edbd
00000210: 9614 a4be fbb1 76be 0d82 6abe 03d7 793d
00000220: ff46 e3bc 6b42 58be 23a3 c6be 9b77 68bd
00000230: 8a88 9fbd 5312 c9bd f89f 66be ea29 fbbd
00000240: 9a99 84be 31f4 57bd 8f50 65be 6675 38be
00000250: eb1a 99be 36d6 12be 8060 74bd dc92 8dbe
00000260: 43b6 41be 7d0c d0be 5f4c 7abe f403 80be
00000270: a932 d2bd cf34 823e 76ae 9c3c 8069 4dbd
00000280: 73df 77bd ce83 42be 4cc1 f6bd 0baa d63d
00000290: 7594 04be 68aa 02bd 6535 01be 1ed1 17be
000002a0: 0758 543d 19b8 84be 5f1d 85be bf3c d6be
000002b0: 328c 663b b1fa a5be 5e67 363e 1b3d 5fbe
000002c0: 5207 4fbd 192e 6bbe 7ebb 97bd 3ef0 b0be
000002d0: 9566 b0bd 472a 82be ffc6 debe 3113 8a3e
000002e0: 2444 67be 7bda 033d 74b0 d6bc f430 debe
000002f0: 038b bdbe f937 bbbe 3494 57be 528c 8ebe
00000300: 306a 56bd b4ae 763e 7aa8 ff3d 4fed 0cbf
00000310: 9217 59be 1199 6cbe d786 84be 39d3 4fbe
00000320: 10a9 76be 972b 21bd cae3 e8bd 40af 02bd
00000330: 02b7 f73c e78d c8bd bdfd d2bd 5f4a bdbe
00000340: e096 5f3e c4fe 56be a23a 15be 954b b5be
00000350: 7588 b7be 7716 3dbd 6733 04be add6 abbd
00000360: bce6 153b 1ae3 0ebe dc64 cbbe b03c 653d
00000370: 70cc 64be 8814 85bd 7136 99be f57e 9c3d
00000380: 10af 95bd d17e a4bd 8ef8 58be 9ffe 1fbe
00000390: 22d1 71be a5d3 ddbe f58d c7be e214 dfbe
000003a0: a89e 85be 456a 47be e2a9 93be 4954 8dbe
000003b0: 49b0 f23d 5454 05bd 65a7 8dbe 0e09 45be
000003c0: 7070 23be 9ad6 ccbb a69e 673d b38a 19bd
000003d0: ee0c 99be 1ac1 d1be dfe3 96be f8f6 893d
000003e0: 47e4 a93d ba79 10bd 4aa4 84be dcbb 413c
000003f0: 9866 02be 6c98 abbd 4e7f dbbc 5314 a4bd
-0.049373165 -0.025012312 -0.041320127 -0.1717693 -0.29087242 -0.30349714 -0.18287492 -0.14261825
-0.02455273 -0.0021518401 -0.06259529 -0.48177904 -0.04398247 -0.018568737 -0.0069451043 -0.3096964
-0.033700764 -0.0010732829 0.015342969 0.03858048 -0.60736763 -0.21501467 -0.16451567 -0.013900519
-0.45237637 -0.19794902 0.0127501525 -0.18000634 -0.01905047 -0.37227535 -0.34804583 -0.13476753
-0.12626341 0.033849183 -0.38312405 -0.32714504 -0.50408757 -0.08866073 -0.12035877 -0.3006959
-0.086604275 -0.30404854 0.00013689541 -0.18815573 -0.29789776 -0.18518944 -0.27775738 -0.23968156
-0.20158094 0.04311853 0.051251944 0.11666171 -0.11533306 -0.3361416 0.18971595 0.068861276
-0.16255726 -0.15153527 -0.08910348 -0.29666412 -0.017388873 -0.32439917 0.107352585 -0.19982189
0.055983193 0.018796729 0.040042136 -0.38241696 -0.06388061 -0.23286007 -0.23157117 -0.16223899
-0.24371421 -0.013193052 -0.24914388 -0.32302028 -0.26574138 -0.08677656 -0.1648038 -0.28309295
-0.09745184 -0.0785548 0.17531501 -0.3993845 -0.0795218 -0.08445274 -0.043671343 -0.5346193
-0.107803084 -0.31949154 -0.056597263 -0.24763146 -0.24259539 -0.3533535 -0.21628582 -0.15617782
-0.19594258 -0.2098061 -0.13140152 -0.013699775 -0.2718202 -0.117028564 0.0126382345 -0.031082427
-0.12043775 -0.14621279 -0.37166142 0.039925747 0.102336586 -0.11487291 -0.32237816 -0.19093853
-0.077568844 -0.013488003 -0.12830071 -0.060174305 -0.045108348 -0.101984836 -0.43441096 -0.3811974
-0.410107 -0.19871883 -0.2856676 -0.17374174 -0.13155249 -0.13186577 0.043962203 -0.65096176
-0.13435212 -0.0973609 -0.031826127 -0.11592591 -0.32046956 -0.24091332 -0.22901173 0.060996067
-0.027743815 -0.21119086 -0.38796338 -0.05675469 -0.07789715 -0.09817948 -0.2252196 -0.12263854
-0.2589844 -0.052723113 -0.22394012 -0.18013534 -0.2990335 -0.14339527 -0.059662342 -0.27651107
-0.18917184 -0.40634528 -0.24443196 -0.25003016 -0.10263569 0.25430915 0.019126158 -0.05014944
-0.060515832 -0.18995592 -0.12048587 0.10481652 -0.12947257 -0.031900793 -0.12618025 -0.14825866
0.051841762 -0.25921705 -0.2599897 -0.4184322 0.0035178778 -0.32417825 0.17812869 -0.21800654
-0.05054409 -0.22966804 -0.07408808 -0.3455829 -0.08613316 -0.2542288 -0.43511197 0.26967767
-0.22584587 0.03219078 -0.026207186 -0.43396723 -0.3702012 -0.3656614 -0.21052629 -0.2784143
-0.052347362 0.24090081 0.12483306 -0.55049604 -0.21200398 -0.23105265 -0.25884125 -0.20295419
-0.2408793 -0.03934821 -0.11371572 -0.031905413 0.030238632 -0.09792691 -0.10302303 -0.36970803
0.21834898 -0.20995623 -0.14573148 -0.35409227 -0.35846296 -0.046164002 -0.12910233 -0.083905555
0.0022873124 -0.1395382 -0.39725387 0.05596608 -0.22343612 -0.06498057 -0.29924348 0.07641403
-0.07308781 -0.08032001 -0.21188566 -0.15624474 -0.23614934 -0.43325534 -0.38975492 -0.4357062
-0.26097608 -0.19474132 -0.28840548 -0.27603367 0.1185003 -0.032551125 -0.27666774 -0.19241735
-0.1596086 -0.0062511684 0.056547783 -0.03748579 -0.29892677 -0.40967637 -0.29470727 0.06736559
0.082954936 -0.035272337 -0.25906593 0.011824574 -0.12734449 -0.083786815 -0.026794102 -0.08011689

linear2.weight f4 [3, 256]
00000000: f863 b5bd 2cfa ec3c d8d7 bb3c 11f7 e43c
00000010: 4c99 d8bd fb57 203e ac32 9cbd 3738 b9bd
00000020: 030c b73c 9446 9bbd 1011 70bd 5bdc 91bc
00000030: 2bc1 dc3c 712a 05bd 10e1 5ebe 36eb fabd
00000040: a60f a8bc ab26 023e bae4 393b 7365 213d
00000050: 77a5 a33d 504f 25be 064a 5b3e 4139 2cbd
00000060: 5094 5a3d 58ef eabd 1a55 61bd e8a5 493d
00000070: 8861 81bd e38e a53c 52ef 7ebe c0a5 4b3d
00000080: 49f8 caba daa5 3d3d ebf3 343b 1f3b 913c
00000090: 3fb7 553d c5cc 21bd c273 e03d d0e0 483d
000000a0: 89dd 74be 3239 143d e764 2b3c 3cbc cb3d
000000b0: 026f fbbc b789 a0bd 7529 bd3d 2ee4 223e
000000c0: 93aa 03bd 8c84 033e 7b82 05be 2504 213d
000000d0: 7a72 11bc e94e aa3d 9417 9ebe 7c35 cabd
000000e0: 86b0 97be 4cfc 1abe 6b52 483d c52a d8bd
000000f0: 2cd7 dcbc 09c8 30be 36cc 9bbc ebfe 6dbd
00000100: da6f 863c bd8a c33e 5148 a0bc 3577 b3bb
00000110: ded6 5abc 0256 3fbd a482 6dbe ae4b a0bd
00000120: d98d 0e3d 5e52 8f3e 0673 ff3d 05be 14bd
00000130: 5939 c53d 46c9 2cbe 8251 e43c 8f2c 60bb
00000140: 0ea4 83bc f67f 95bd 0653 8abe d81e bb3d
00000150: 294f 13be 8e4f 49bb 08b9 883b 2ace acbc
00000160: 0273 db3d 9e28 95bd 0ed5 dd3b 6480 993d
00000170: 7ab0 853c 8e96 bcbc 7e7a e0bd 4524 91bd
00000180: 8886 56bc f261 7c3d 2331 4abe cb03 eb3c
00000190: 6839 a1bc 4d3e 573d 2559 a23d 06fd 103c
000001a0: 276b 06bd 9a81 d63d 7aa8 f43d 2556 f63c
000001b0: be24 afbd 9da4 37bd 764d b73d a4e4 9fbc
000001c0: 1445 f63c dc5b 11be 2bae 003e 7e30 49bb
000001d0: adb3 243b b1d2 403d 2704 d93d 0599 f8bd
000001e0: b76b c9bd 463f c93d f4c7 a3bc 5f35 19bd
000001f0: 0390 12be 43fc 2cbd b201 37be c54a 91bd
00000200: 6e82 bebd 48d0 13bd 9c77 8c3d 3563 cdba
00000210: 89b7 8d3b 69e6 aabb ca9c 78bc 9529 a03c
00000220: 9b4d 913c 92a9 9d3c 77ed 0f3d b620 87bd
00000230: 1d51 52be 8204 eabd 2de2 23bd 73ee ff3c
00000240: 8640 003d 2e99 d83c 9b24 bb3c 4d59 b4bd
00000250: ea44 1a3d 4d1d 56bd 4ac0 dc3c 7640 0ebd
00000260: 24c6 dabc 4ca7 093d 196c 953e be1d 193d
00000270: 09f4 a0bd 13cf 6dbd d2cb 83be b926 cbbd
00000280: 3d18 debc f04b 713c fd57 ebbd f0e1 333c
00000290: 06dd c13d 06d1 2bbe 2eb3 1c3e a891 be3c
000002a0: 449a 053e fc0a d53c 27c5 6d3d 19be 0c3c
000002b0: 6bf6 82bd 9ac1 f1bd 023c f2bc ac90 88bd
000002c0: 2395 7cbd c09c 8cbb c371 11bd f41f 27bd
000002d0: f4ae 91bd 6a1e 82bd aa42 963d 5d3e 0a3e
000002e0: 65d7 52be fab4 e5bd f322 073c bb7e 0abe
000002f0: 4840 e7bb 9531 d63e 7787 cb3d 146b c3bc
00000300: 73c9 cd3d fa3a ec3d 7d53 b6be 4a48 243d
00000310: e3e7 d0bc f6af 6f3c ad3d f13b a05d 92be
00000320: 12e7 d8bc afb3 043e fb8b cabd 89d3 e2bc
00000330: 95fc 86bd 5063 f73d 3069 86bc 5b93 0abe
00000340: a759 8bbe f273 e7bc 6c0d 71bd 80aa f43c
00000350: a23b 4dbb c107 fa3c df3d c23b 643b dfbd
00000360: 1ea8 963c b193 10be b4b7 22be 7672 6cbe
00000370: 15d6 8abd 180a 7ebd fea6 963d d809 673d
00000380: a33e 8dbb 9111 103e 690a 643d 825b 9d3d
00000390: aee4 4dbd 4c1d 1f3d cd9f c3bd b034 d53b
000003a0: c0c5 8d3d b901 a43d 301f 563d 7789 9d3d
000003b0: 3f0a 8dbe 8bab 5dbd 2dca 073d 1e63 a2ba
000003c0: a87a c0ba 2205 46be a560 83be 786f 52be
000003d0: 02d6 073d d320 c6bc 936d f03d a092 ff3c
000003e0: e1c1 acbd 9d7e afbd f8ea 253c 765c d2bd
000003f0: 513d bf3b a3e7 92bd 6c2c a9bd 4261 143d
-0.08856958 0.028927885 0.02293007 0.027949842 -0.10576114 0.15658562 -0.076268524 -0.09043925
0.022344595 -0.07581821 -0.058610022 -0.017805269 0.026947578 -0.03251118 -0.21765542 -0.12251894
-0.020515274 0.12710063 0.0028365091 0.03940339 0.07990544 -0.16143537 0.21414956 -0.04204679
0.053364098 -0.114714324 -0.0550128 0.049230486 -0.06317431 0.020209735 -0.24895981 0.04971862
-0.0015485372 0.046300747 0.0027611207 0.017728386 0.05217671 -0.039501924 0.10959579 0.049042523
-0.23912634 0.03618736 0.010461069 0.09948012 -0.030692581 -0.07838767 0.09236423 0.15907356
-0.032145094 0.12843531 -0.13038056 0.039310593 -0.008877391 0.08315832 -0.30877364 -0.098734826
-0.29626864 -0.15135306 0.048906725 -0.10555033 -0.02695807 -0.17263807 -0.019018274 -0.058104437
0.016410757 0.38191786 -0.019565733 -0.005476857 -0.013356892 -0.046712883 -0.23194367 -0.07826935
0.034803245 0.2799253 0.12473111 -0.03631403 0.09630079 -0.16873655 0.027870897 -0.0034206246
-0.016069438 -0.07299797 -0.27016467 0.09136742 -0.14385666 -0.0030717584 0.004172448 -0.0210944
0.107152954 -0.07283138 0.006769783 0.07495192 0.016319502 -0.023021009 -0.109608635 -0.07086996
-0.013093598 0.061616845 -0.19745307 0.028688332 -0.019680694 0.05254965 0.07927159 0.008849388
-0.032817032 0.10473938 0.11946197 0.030070374 -0.0855193 -0.04483472 0.089503214 -0.019518204
0.030062236 -0.14195198 0.1256644 -0.003069907 0.002513151 0.04707593 0.10596495 -0.12138561
-0.09834998 0.098265216 -0.019992806 -0.037404414 -0.14312749 -0.042232763 -0.1787174 -0.07094339
-0.09302221 -0.036087304 0.06858751 -0.0015669825 0.0043248576 -0.0052154553 -0.0151741 0.019551078
0.0177372 0.019245896 0.035138573 -0.06598036 -0.20538755 -0.11426641 -0.04001062 0.031241631
0.031311534 0.02644023 0.022844603 -0.08806095 0.037663378 -0.052274037 0.02694716 -0.034729443
-0.026705809 0.033606812 0.29184034 0.03738188 -0.07859046 -0.05805881 -0.2574144 -0.09919495
-0.027111167 0.014727578 -0.11491392 0.010979161 0.09465985 -0.16778955 0.15302727 0.023262814
0.13047129 0.026006214 0.058049347 0.008590245 -0.06394657 -0.11804505 -0.02956963 -0.06668219
-0.061665665 -0.004291147 -0.035508882 -0.040801957 -0.07113448 -0.06353457 0.07336934 0.13500352
-0.20589979 -0.11216159 0.008248079 -0.13524906 -0.0070572235 0.41834703 0.09937947 -0.02385477
0.10048189 0.115346864 -0.35610572 0.040108003 -0.025501197 0.014629355 0.0073620887 -0.28587055
-0.02647737 0.12959169 -0.098899804 -0.027688758 -0.06591145 0.12079489 -0.01640758 -0.13532774
-0.27216837 -0.02825353 -0.05885069 0.029866457 -0.0031316062 0.030521275 0.0059277858 -0.109
0.018390711 -0.1411884 -0.1589039 -0.23090538 -0.06779114 -0.062021345 0.0735607 0.056405872
-0.0043104454 0.14069201 0.05567399 0.07683469 -0.050266914 0.0388463 -0.09551964 0.006506525
0.069224834 0.08008141 0.052275836 0.07692235 -0.2754688 -0.054118674 0.033151794 -0.0012389158
-0.0014684992 -0.19337896 -0.2565967 -0.20550334 0.033163078 -0.024185574 0.117396496 0.031197846
-0.08435417 -0.085690714 0.010126822 -0.10271542 0.005836167 -0.071730874 -0.08260426 0.036225565

linear2.bias f4 [3]
00000000: be5d 9cbe fe51 4cbe 8a02 d9be
-0.3054027 -0.19953153 -0.4238475
